nb/gymnasium/policy_net.pth (torch, 72633 bytes, 6 tensors)

fc1.weight f4 [128, 4]
00000000: a47d 5f3d 0881 7bbe 1bd0 ef3e 891c 25be
00000010: 2cf0 d83d 2c4e fc3d db47 f73e 0468 8b3e
00000020: 692e 8a3d e477 e0be f859 9abc f203 1c3e
00000030: 10c6 043c dd93 f13e 374b 0c3f f603 3fbc
00000040: d4f3 7dbe af39 90bc b240 d93e d0bc 993e
00000050: 12e0 1f3e 4b79 933e 027c 6bbe daa4 6ebe
00000060: 4779 f9bd aa5d a0be 4d0d b33e 21db 6b3e
00000070: fc96 b2bd 4ce5 9ebd e726 e13b eca1 89be
00000080: ba9e 713c 6a7d b7be 16cd c7be f17a 66be
00000090: dd3c e63e 3024 ab3e 10a9 a33e 1308 c3be
000000a0: bc3e 3abe 588c 383e c176 3f3e d9e9 7dbd
000000b0: e729 c93e 4d49 903e 5f68 a5be ea59 bebe
000000c0: 8127 5a3b fa93 1b3e 72a9 6a3e af24 ac3e
000000d0: ad41 f7bd 49c4 2abe c88c 5f3e d82e 8ebe
000000e0: 0bdf 913e acab 8a3e 74b5 08bf 89dc 103e
000000f0: 9d64 0dbe c012 df3e bee7 c0be 87c3 f8be
00000100: 83bf 66be 9de9 7a3e b9d8 40be 88ee 2d3e
00000110: 1d6d 933e 59a4 00be 5a33 e9be c36c 033e
00000120: 1e90 db3c 4186 9cbe ed1a 6bbe 8b03 553e
00000130: addc f33b 3c9d c13c 1f41 a5be 3f20 f93e
00000140: a1de 913e ccd3 d3be 3fba 073e a7ec 013e
00000150: 60e1 013e 109f c6be 0ff1 edbe 0187 f03d
00000160: 9cc5 2d3d ec67 3b3e 0273 d7be 95ed 423d
00000170: 9c3c c43e fe49 133e d557 e43c 922f ec3e
00000180: 5118 863c 5395 843e 1f2f 25be 63a6 a83d
00000190: debf 523e 2f43 003e 4309 adbd d882 7c3e
000001a0: 4652 e73e e1f4 813e 9840 453c 60f3 d13d
000001b0: 943c b73e 6490 a8be 3abf 64be fca1 25be
000001c0: a7fe a33d 78ad 9c3d c529 9bbd 001c 37bd
000001d0: 8575 8e3e eee7 a83e 8419 0cbe c188 edbe
000001e0: b455 dabe bfef 78be c4a0 e53e 651c f4be
000001f0: b8dc 2cbe 1e2a 013e e6ae f33e 5392 843e
00000200: 370c 29be a949 c2bd 86ee c7be 5af9 9abd
00000210: 2f96 5c3d 28e2 f0be 4814 e43d f9d0 ec3e
00000220: 629f d5be 4ef8 1b3e 1e48 dabe bf9f 033e
00000230: bfaf b1be 298b 58be 3730 cdbe 8788 173e
00000240: 9a57 98bd a3e4 243b fcee b5be 578d db3d
00000250: 3e43 4fbe dd5c a03e a70e e83c 77f5 5a3d
00000260: e8f5 d23e ad0e 923e af5d b6be 82b0 b1be
00000270: df5b 4e3e a5c4 c8be bd70 813e 6416 f7be
00000280: a02f d03e dfb1 cdbe 8471 c53b 7399 cb3e
00000290: 30cb a8be 567c bfbd 522a 843e baee 4fbe
000002a0: 3e50 f33e f63e a73e 7afb bebe 2f50 3cbd
000002b0: 404b 6ebe a6c2 0cbd 6267 293d 6efa afbe
000002c0: 000d 9bbe 33b2 9b3e 73c6 4c3e 9447 64be
000002d0: 383d f6be 615a b8be 3363 823e bcef 14be
000002e0: 4416 be3e 834d 223e 1305 f93d b90f 83be
000002f0: c98b 8f3e ee3e ed3e 9c70 e2be c168 61bc
00000300: 4f97 c8bd 95a6 853e 9f3e b03e ddd4 733e
00000310: fc19 db3e 55df 873e e47e ac3e 49d2 dd3e
00000320: 0896 903d 112d 87bc 99ba 2dbe 886f b6be
00000330: 17e1 1fbe 1a29 4d3e a6a6 cf3d 9690 4d3e
00000340: 45fa e13d 0b59 fc3e 998c e0be 1923 f23e
00000350: 2335 c8be c005 533d b0d7 b6be 0909 373e
00000360: c906 643e 0647 c03e 35eb c2be 54ad ba3d
00000370: 6444 b23e bca4 e3be a70d f13e c6df ec3e
00000380: ae4c 1cbe fd27 18be 166a 863e b40c 193e
00000390: 14c9 bfbd d3b8 89be a5da 44be e0ca eb3e
000003a0: 7328 1abe d5c6 d4be e8e6 c73e eee2 083d
000003b0: 80ec e43e f967 913e d9e3 cdbe 763e 8abe
000003c0: ea37 bcbd 7a5a 5fbe c2c7 7cbe 9aa2 2e3e
000003d0: 8ae1 e83e 7700 223e 52dc b33e 2959 b5be
000003e0: 4d3e cbbe 1e67 093e 9610 d4bc 2a4a 243e
000003f0: f0fd a93e 6cde 393e d5e9 963e 92c6 333c
0.05456318 -0.2456094 0.4683846 -0.16124167 0.10592684 0.123195976 0.4829701 0.27227795
0.06747133 -0.4384147 -0.018841729 0.1523588 0.008103862 0.47183123 0.5480227 -0.011658659
-0.24800044 -0.01760563 0.4243217 0.30026865 0.1561282 0.28803477 -0.22996524 -0.23305073
-0.12181335 -0.3132146 0.34971085 0.2303281 -0.08720204 -0.07758579 0.0068710926 -0.2688135
0.014747316 -0.3583787 -0.39023656 -0.22507836 0.4496831 0.33426046 0.31964922 -0.38092098
-0.18187994 0.18022287 0.18697645 -0.061990593 0.3928978 0.28180924 -0.3230619 -0.37177974
0.0033287706 0.15193167 0.22916201 0.33621737 -0.120730735 -0.1667644 0.21831048 -0.27770114
0.2849048 0.270841 -0.53401875 0.14146627 -0.13807912 0.43568993 -0.37676805 -0.48586676
-0.22533993 0.24503179 -0.18832673 0.16985524 0.28794184 -0.12562694 -0.4554699 0.12834458
0.026802119 -0.30571178 -0.2295949 0.20802133 0.007442078 0.023634546 -0.32276246 0.48657414
0.28490165 -0.41372526 0.13254641 0.12687932 0.1268363 -0.3879323 -0.46472976 0.117445
0.042424783 0.18301362 -0.42079931 0.047589857 0.3832749 0.14383695 0.027873913 0.46130043
0.016369017 0.25895175 -0.16131257 0.08234861 0.20581004 0.12525629 -0.08449032 0.24659288
0.45179957 0.2538214 0.012039326 0.10251498 0.35788405 -0.3292266 -0.22338572 -0.16175073
0.080075555 0.07650274 -0.07576326 -0.044704437 0.27824035 0.32989448 -0.13681608 -0.46393397
-0.4264351 -0.24310206 0.44849217 -0.47677913 -0.16881073 0.12613723 0.47594374 0.25892887
-0.16508566 -0.09486706 -0.39049166 -0.07567091 0.053854164 -0.47047544 0.11136681 0.46253183
-0.41723162 0.1523144 -0.42633146 0.12853907 -0.34704396 -0.21146835 -0.40075848 0.14798175
-0.07438584 0.0025160692 -0.35533893 0.10720318 -0.20240495 0.3132085 0.0283273 0.05345675
0.41203237 0.28526822 -0.3561835 -0.34704977 0.20152234 -0.39212528 0.25281325 -0.4825927
0.40661335 -0.40174767 0.006025495 0.3976551 -0.3296752 -0.09349887 0.25813538 -0.2030591
0.47522157 0.32665223 -0.37301236 -0.045974907 -0.23270893 -0.03436532 0.04135836 -0.3437075
-0.30283356 0.30409393 0.19997577 -0.2229293 -0.4809358 -0.36006454 0.25466308 -0.14544576
0.37126362 0.15849881 0.12159171 -0.25597933 0.28036335 0.46337074 -0.4422654 -0.013757885
-0.09794485 0.26103655 0.34422776 0.2381167 0.42793262 0.26537576 0.3369056 0.43324497
0.07059866 -0.016500982 -0.16965713 -0.35631967 -0.15613209 0.2003521 0.101392075 0.20074686
0.11034063 0.49286684 -0.43857267 0.47292402 -0.3910304 0.051519156 -0.35711432 0.1787454
0.22268213 0.37554187 -0.38070074 0.09115091 0.34817803 -0.4446162 0.47080728 0.46264476
-0.15263626 -0.14859004 0.26252812 0.14946252 -0.093645245 -0.26898822 -0.19224031 0.4605322
-0.15054493 -0.41557947 0.39043355 0.033419542 0.44711685 0.28399637 -0.40212896 -0.2700078
-0.09190352 -0.21811858 -0.24685577 0.17054215 0.45484573 0.1582049 0.3512903 -0.35419586
-0.3969597 0.13418242 -0.025886815 0.16043916 0.3320155 0.18151253 0.29475275 0.010972636

fc1.bias f4 [128]
00000000: d8fa 79bd db00 6dbe 8684 c23d 43e1 2d3e
00000010: 91ac f2be 8035 b2be 4f83 21bd cddd f83e
00000020: 703d ac3e 2726 4e3d 2cbd f4be 1947 4bbd
00000030: 2ebc c1be a6cb c03e 2180 ddbd a38e a9be
00000040: d7da a7be 9558 213e ee72 d63e 498d ac3e
00000050: abd1 8bbe 3cd7 cfbd 770a e6be e0a9 ce3e
00000060: b7a0 ddbe be55 df3e cfe3 203e 40b8 8a3e
00000070: 3899 d83d a398 ba3e f667 853e 1640 bc3e
00000080: f0b3 dc3d 752c b93e ca26 013f 53aa 393e
00000090: 0944 febe 2804 efbe 56ec a43e bd62 92be
000000a0: 8e79 bd3e 141d 8a3e bb1a 95be 3ed1 e13e
000000b0: ceb5 67be 1d42 a33d 0210 5f3e d166 74be
000000c0: 02c9 2f3e b2ab 393d 2c98 953e 057b acbe
000000d0: 5bc0 49be 0ed0 ef3b fd82 343e 9006 0dbe
000000e0: 9e08 493e fe00 bb3e acd3 9b3d 9693 9a3e
000000f0: 105f dc3e 3a04 b5be 282d d13e bcbb 0d3e
00000100: 6898 00be 7dc5 bcbe aa6f ea3e bc11 1fbd
00000110: 8254 f0be 1993 e6bd 32b7 bcbd 59f1 a63d
00000120: 4752 b4bd 3f88 583e 5bde 113e 4bf3 7c3e
00000130: 7e0f fa3e 629c f23d 823a 9a3b 0a05 853e
00000140: f7ca bb3e 6807 d53e 18a0 b6be 10f2 06be
00000150: 469c f43d dda5 b83b 314e 9dbe 8f3b 903e
00000160: c264 0fbe e1e1 8cbd d52a 95be 7489 f53e
00000170: 85d7 c0be 476d cdbe a583 bebd 9608 ab3e
00000180: f999 f3be 87c6 a53e 021f 97bd b544 cabe
00000190: e4cc 93be 945b b9be fade 803e 1ef0 f0be
000001a0: ca28 b9be fabd a63d e15e ce3e 3a0d 3bbe
000001b0: 0593 e0be ddc8 ea3e 2c41 583e 403e bebe
000001c0: 5e2e d9be 4d9f c73d 1bf7 5f3e f904 ab3d
000001d0: 93f9 c4be 6537 f83e 5f21 bebe 3060 dabe
000001e0: 3c5e 83bd b448 d63e 1212 f13d 8dc4 fd3c
000001f0: c574 4fbe e96c c23e 50ba b83e 29d4 4c3e
-0.06103024 -0.23144858 0.09497933 0.16980462 -0.47397283 -0.34806442 -0.039431866 0.4860672
0.33640623 0.050329354 -0.47800577 -0.04962835 -0.37838882 0.3765537 -0.10815454 -0.33116636
-0.3278415 0.15756448 0.4188456 0.33701542 -0.273084 -0.101484746 -0.4492986 0.4036398
-0.43286678 0.43620104 0.15711902 0.27093697 0.10576099 0.36444578 0.26055878 0.36767644
0.10776508 0.3616673 0.5044981 0.1813138 -0.49661282 -0.46682858 0.3221156 -0.28590956
0.370068 0.2697531 -0.29121956 0.44104952 -0.22627947 0.079715945 0.2178345 -0.23867346
0.17166522 0.045329757 0.2921766 -0.33687606 -0.19702284 0.007318503 0.17628093 -0.13772035
0.19632193 0.36524194 0.076087326 0.30190724 0.43041277 -0.35354787 0.40854764 0.13841146
-0.12558138 -0.36869422 0.45788318 -0.038835272 -0.46939474 -0.112585254 -0.09214629 0.08151502
-0.08804756 0.21145724 0.14244978 0.24702184 0.48839945 0.11846234 0.0047066817 0.25980407
0.36678287 0.41607213 -0.35669017 -0.13178277 0.11943869 0.005635007 -0.30723718 0.2817044
-0.1400328 -0.068790205 -0.2913424 0.4795643 -0.37664428 -0.40122434 -0.09302453 0.33404988
-0.4757841 0.32378027 -0.07378961 -0.39505544 -0.28867257 -0.3620268 0.25170118 -0.47058195
-0.36163932 0.08141704 0.40306762 -0.18266764 -0.43862167 0.45856372 0.21118611 -0.37156868
-0.42418188 0.09747181 0.21871607 0.08350558 -0.3847166 0.48479763 -0.37134835 -0.4265151
-0.06414458 0.41852343 0.11771025 0.030977512 -0.20259388 0.37973717 0.36079645 0.20002808

fc2.weight f4 [128, 128]
00000000: 6b2a 433b a90f 663d 086f a5bd 553c 8abc
00000010: b583 31bc 7497 5a3c a897 6abd 4c3f 053c
00000020: 6f90 8c3d 380b 323d 2662 02bd b880 1dbd
00000030: 1ebb 87bc 31fb 7bbd 5422 a53d da51 853d
00000040: 8081 1e3d e55a ab3c 73f6 debb 43f3 a13d
00000050: ff25 0fbd 72be 943d 7650 3e3d 10ab 94bc
00000060: dd01 9e3d 9a72 1dbc 97fb 4abc 0168 fd3c
00000070: 1db4 2c3d 93b1 c9bc 5e65 993d e3c2 4bbd
00000080: 5bd3 7c3c 299c 84bd a3a2 583d c94d 62bd
00000090: 12bc 893d 7e0e 44bd 0f4d a6bd 5a78 f7bc
000000a0: 4da1 96bd e1ad 69bd 5d7f f8ba 2f72 0ebc
000000b0: 565b 9ebc fd88 abbc 41f2 4fbd 3976 e6bc
000000c0: 0936 a5bd 4c14 943d 80b4 093d f558 85bd
000000d0: 3969 b03d f960 093d c1d5 b03d 2aaf 1e3d
000000e0: d36c 10bd 9f3a b33d e46d b2bd 7697 a73c
000000f0: 4a3d 64bc a178 75bd 7d85 393d 00d6 0bbd
00000100: b213 a3bd b7a2 64bd a505 6fbc 1d11 31bc
00000110: 5756 9d3c 3c7f f53c 61ba 393d 980f 5a3c
00000120: 187d 5ebc 2587 823d 31a0 6dbd 85bb 82bb
00000130: 9b20 a5bd cf7c 493d 5e85 683d ed61 6c3d
00000140: c717 3bbc 4aaa 6fbd bf85 30bd 60e3 933d
00000150: acc6 90bd 76ba 443c 768a 6fbd 67dc a73d
00000160: c8bc f4bc 8902 f23c ad81 843d dc75 55bd
00000170: 0f75 983d 73b4 193d af92 62bc 093c 0e3d
00000180: cff8 7abd bea7 82bd ce47 73bd c325 92bc
00000190: faca 9bbd 0800 3d3d 47aa e33c 0c0b 9a3c
000001a0: 3899 d0bc 98da 7e3b 1293 82bd 632f ebbb
000001b0: 199c 853d 3d3b 5b3a db00 40bd e7bd 6d3c
000001c0: 9522 83bd f8a7 483d 8570 0f3d 608e ecbb
000001d0: e0a2 9fbd eacc 63bd 170f 8fbd 3452 7dbd
000001e0: 5a74 6bbd fe00 80bd 6a0b f9bc b041 c7bc
000001f0: c12b 873b ec9e d83c 0483 b13d 223c 8d3d
00000200: 6a71 dc3c 7c1b 953d 0669 0f3d 78e9 8b3d
00000210: c357 1f3d 52a8 29bd 55bb 563d 09cb 0c3d
00000220: b166 973c d338 86bd 96aa 443d e050 77bd
00000230: 829b d73b ac4d 9e3d 80aa 20bd d0d3 b03c
00000240: 18e2 8f3d 8cb0 debb 54ae 4a3a aaa0 82bd
00000250: ef24 6dbd 2e98 e33a e5e9 a9b9 8143 26bc
00000260: 6f03 e53c fa2a 05bc 8ab8 2bbd 13bb 83bd
00000270: f6da 7d3d 8149 94bd 78a2 83bd ee1a 9fbd
00000280: ff58 97bd 1087 86bd 7565 b4bd 9ca1 89bd
00000290: 7ac8 afbd 1c50 dd3c 4e26 35bc 1631 7abc
000002a0: 8499 0bbd 26b4 b03d 2078 273d 19d4 983b
000002b0: b873 893d 9eb5 e8bc bbd6 64bc a475 59bc
000002c0: 6885 cbbc bc6f 5a3c a6a8 97bd 5ad8 56bd
000002d0: e942 a43c 5b91 bc3b ec8d 84bc f4b4 fcbc
000002e0: 40bb 8b3d 7f1c 03bd 25ef e03c c78c 82bd
000002f0: d656 863d dce6 a7bd 4494 36bd 61b0 393d
00000300: e5af 0e3d 9d87 2c3d f206 633d 80e8 a3bc
00000310: 1e17 063d c9f9 0bbd 200b 993d cf0e 903d
00000320: 1914 463d a28f 12bd fda9 d4bb fae6 d9bb
00000330: 9a03 08bd c189 abbd f53f 5d3b c9ef 9ebd
00000340: f6da 02bc 1e63 1cbd 2469 8b3c 53ae 003d
00000350: 1b53 643d 2b7c d13c 3728 95bd 1537 b5bc
00000360: 0951 a3bd da38 b0bd df84 5a3d 4187 483d
00000370: b658 0a3d 87c8 36bc 2cc0 2ebc b115 a0bc
00000380: 8587 193c bf66 903d 3480 313d 2969 853d
00000390: 9eb9 41bd 25ff 11bd 03b9 6cbd be37 bb3b
000003a0: 75d5 793d 2ee1 713d 053f 853d 03c7 9e3d
000003b0: 9181 82bd 5ee3 633d ced5 81bd 8cf7 8f3d
000003c0: 3ad8 93bd f5e2 3938 efdf 7d3d 97e3 473c
000003d0: 41c3 4fbd 7bf7 663d 779d be3c a7c5 7e3c
000003e0: 228a 6f3d 6b88 643c 538e 443d 0ece 39bd
000003f0: 505b 7c3d 14b4 acbd ccb9 573c f231 363d
0.0029779922 0.05616728 -0.08077818 -0.016874472 -0.010834624 0.013341773 -0.057273537 0.008132767
0.06863486 0.04346773 -0.031831883 -0.038452834 -0.016568717 -0.06151885 0.08063188 0.065097526
0.03869772 0.020917365 -0.0068042814 0.079077266 -0.034948345 0.07262887 0.046463452 -0.018147975
0.07715199 -0.009609843 -0.012389085 0.030933382 0.042163957 -0.024620807 0.074900374 -0.049746405
0.01543125 -0.06475098 0.052889477 -0.055249963 0.06725325 -0.047865383 -0.081201665 -0.030208755
-0.073549844 -0.05705059 -0.0018958856 -0.008694216 -0.019330662 -0.020939345 -0.05076814 -0.028132545
-0.08066947 0.07230434 0.033619404 -0.06511108 0.0861382 0.033539746 0.0863452 0.03874127
-0.035260033 0.087514155 -0.08712366 0.020457964 -0.013930628 -0.059929494 0.04529332 -0.034139633
-0.07962741 -0.05581924 -0.014588748 -0.010807303 0.01920621 0.029967897 0.04534376 0.013309382
-0.013579629 0.06373433 -0.0580141 -0.003989639 -0.080628596 0.049191292 0.056767814 0.057710577
-0.011419243 -0.05851201 -0.0430963 0.07221103 -0.07069144 0.012007346 -0.058481656 0.08196335
-0.029875174 0.029542224 0.06470046 -0.052114353 0.07444202 0.037525605 -0.013828917 0.034725223
-0.06127244 -0.063796505 -0.05939465 -0.017840272 -0.07607074 0.046142608 0.027791156 0.018804096
-0.025463685 0.0038887616 -0.06375708 -0.00717728 0.06523914 0.0008363014 -0.046875816 0.014510608
-0.064030804 0.048988312 0.035019416 -0.007219121 -0.07794738 -0.055615343 -0.069853 -0.061845973
-0.05748401 -0.06250189 -0.03040095 -0.024323314 0.004125089 0.026442967 0.08667567 0.06896235
0.026909549 0.07280633 0.035012268 0.0683164 0.038902055 -0.04142029 0.052424747 0.034373317
0.018481584 -0.06553807 0.048014246 -0.060379863 0.0065798173 0.077296585 -0.0392251 0.021585375
0.07025546 -0.0067959484 0.00077316654 -0.063783005 -0.05789655 0.0017364079 -0.00032408457 -0.01014793
0.027955739 -0.008127922 -0.041924037 -0.06432166 0.061976396 -0.07240582 -0.06427473 -0.07768808
-0.073900215 -0.0656873 -0.08808414 -0.06720278 -0.0858316 0.027015738 -0.011056496 -0.015270492
-0.03408195 0.086281106 0.040886045 0.004663956 0.06711525 -0.028406914 -0.013967211 -0.013272677
-0.024843886 0.013332304 -0.07405214 -0.052452423 0.020051436 0.0057546324 -0.016180955 -0.030848004
0.068228245 -0.032009598 0.027457783 -0.063745074 0.065595314 -0.0819833 -0.04457499 0.045334224
0.034835715 0.04212152 0.055426545 -0.020008326 0.03273689 -0.03417376 0.07472825 0.070340745
0.04835901 -0.03578151 -0.0064899907 -0.006649849 -0.03320656 -0.08375884 0.0033760045 -0.07760579
-0.007986775 -0.038180463 0.017017908 0.03141625 0.055743318 0.025571903 -0.07283061 -0.022120992
-0.079744406 -0.086045936 0.053349372 0.048957113 0.033776008 -0.011156208 -0.0106659345 -0.019541593
0.009370689 0.07050847 0.043335155 0.06514198 -0.04729616 -0.035643715 -0.05779363 0.005713432
0.060994584 0.05905264 0.06506161 0.07752802 -0.06372369 0.055636756 -0.06339608 0.07029638
-0.07218976 4.4318807e-05 0.061981138 0.012200258 -0.050723318 0.05638836 0.023268444 0.015550054
0.058481343 0.01394854 0.047987293 -0.045362525 0.06161052 -0.08432785 0.013166856 0.044481225

fc2.bias f4 [128]
00000000: c682 c53c 1feb 86bd 7e3a a73c aab5 4dbd
00000010: 3cdf dbba b4d3 1a3d e362 82bc 61e1 24bd
00000020: b681 00bd c2ea cf3d 6afd 8bbc 8649 ddbc
00000030: 21f0 45bd 4224 c33d 7a1b 0cbc 29be 5abd
00000040: b3ea 1c3d e0cd 673d db5b 633c bb48 6bbb
00000050: 24ea ca3d 7f1e b33d 5e6e 6dbb 0bf9 72bd
00000060: 7af0 81bd 0b1f 803c e96e 86bd 1249 a43d
00000070: e14e ad3d 3667 c03c d1be 50bd 5da1 13bd
00000080: 283c bf3d c1db 5b3d c698 13bd 163d 47bd
00000090: 3194 60bc 5e76 2e3c 69aa 35bd 0d43 913d
000000a0: e5c1 9c3d 90bf 7abd 85dd e1bc 7c65 6f3d
000000b0: 2800 803b ed79 1d3d 11eb cc3d 6db0 a4bc
000000c0: bbf4 6abd f310 8dbd 49ea 3dbd 9c4b 14bd
000000d0: d6b4 9dbd 2f57 203d a9f8 82bd 15c3 673d
000000e0: ad5d 13bd 95e6 8cbc 842d 8abd 90e2 903d
000000f0: f9eb a7bc 87da c73d ebbe a43c d438 d1bc
00000100: 3ac9 bdbd 833b 083b bc8f a5bc d795 8dbd
00000110: 90ea be3d db29 aabb 199e b63d dc02 81bd
00000120: 8c90 cabc b94d 9dbd 9b2b 3cbd ce7c 7d3d
00000130: 887d 0a3d c415 8fbd 613a 803d ab0e 323d
00000140: 13b6 913b 0cdd 70bd 19ef 7f3d 8435 ac3d
00000150: 1dce f73b f887 3b39 f6ce 223d bbca 0d3d
00000160: f7b0 9ebc e0d7 72bd 84c5 ce3b 8637 ee3c
00000170: c04a a4bd 70b7 933c 00d1 6cbd 273e 5cbc
00000180: dedd 953b 452a 0cbd 8126 bc3d 45bb ecbc
00000190: 192c c33d d0e4 b7bb f50e 29bd ce99 bebc
000001a0: b574 003d e4d4 c6bb 3cde 9b3c cf04 3cbd
000001b0: 8c2c 543d 70a0 73bc dccc 973d 3617 8b3d
000001c0: 1909 c53d cd30 8bbd 709e b8bd 8680 7abd
000001d0: 0344 73bc 77b1 003c fa77 643d f3cb 593c
000001e0: e156 d83d 885d 6ebd a3db 7dbc 49c5 27bb
000001f0: 6f31 9bbd bff3 06bc 5b12 81bd 505c 47bd
0.02411021 -0.065878145 0.020413633 -0.050222076 -0.0016774903 0.037799552 -0.015916293 -0.040254
-0.031373702 0.101521984 -0.01708861 -0.027012598 -0.048324708 0.095284 -0.008551473 -0.053404007
0.038309764 0.056592822 0.0138768805 -0.0035901505 0.0990794 0.08746051 -0.0036229114 -0.059319537
-0.063446954 0.015639802 -0.06564123 0.080217496 0.084623106 0.023486715 -0.050963227 -0.03604256
0.09337646 0.05367637 -0.036034368 -0.04864224 -0.013707207 0.010648338 -0.04435197 0.07092867
0.0765417 -0.061217844 -0.027571449 0.058446392 0.0039062686 0.038446356 0.10005773 -0.020103658
-0.0573623 -0.068879984 -0.04636601 -0.03620492 -0.07700507 0.039145645 -0.063950844 0.05658253
-0.035978008 -0.017199794 -0.06746963 0.07074463 -0.020498263 0.09758478 0.020110568 -0.025539793
-0.092668965 0.0020787425 -0.02021014 -0.06913345 0.09322083 -0.005192978 0.089168735 -0.062993735
-0.024727128 -0.0768084 -0.045940023 0.0618866 0.033811122 -0.06986573 0.06261135 0.04347102
0.0044467538 -0.058804557 0.06248388 0.08408645 0.0075624124 0.00017884362 0.039748155 0.034617167
-0.019371493 -0.059287906 0.006310167 0.02907921 -0.0802207 0.018031806 -0.057816505 -0.013442553
0.004573568 -0.03422 0.091870315 -0.02889789 0.09529895 -0.0056119934 -0.04127403 -0.0232667
0.0313613 -0.006067859 0.019026868 -0.045903023 0.051800296 -0.014869794 0.07412121 0.067915365
0.09620876 -0.067964174 -0.090145946 -0.061157726 -0.014847758 0.007854811 0.05577848 0.013293254
0.10563446 -0.058194667 -0.01549426 -0.002559977 -0.07577788 -0.008236825 -0.06302329 -0.04867202

fc3.weight f4 [2, 128]
00000000: 1d62 a7bd 1430 833d c22e a4bd 3133 00bc
00000010: b86b c2bb 70e4 973d 9704 343d f8df 8fbd
00000020: 06cf c83d a2e1 c33c 0257 be3d 99fa 9b3d
00000030: e969 b1bd d651 733d 3298 45bb bd76 a2bd
00000040: a624 c13d 2060 b63c ac6e 863c 6df5 e13c
00000050: db51 a33d ca12 e6bc ecaf bf3d 3209 44bd
00000060: 2163 98bd 63e1 8fbd 1f2c 933d 289e 08be
00000070: 392e a93d 496b 4d3c 4d7e 573d 1c04 85bd
00000080: f842 963d 491d dcbd ee35 e33d 4885 4e3d
00000090: f3c3 8b3d 6523 c63d 6f47 703d 8700 493d
000000a0: 6600 813d 7e19 d53d c12d aa3d 85ef 9b3d
000000b0: b9b7 f23c f11e 193d 64a8 263d 6cfb 02be
000000c0: a1bd 9abd aa49 6ebd 5cf8 f93c f1f7 3d3d
000000d0: 71fb 3fbd 5a88 203d 50f1 72bd ca5a eabc
000000e0: 3364 2fbe 22a2 84bd 17d9 10bb cca8 c6bc
000000f0: 7a3a 0d3d dff6 913c ff69 48bd 8ce3 aa3d
00000100: 1829 0fbd 6edd c03d 1c9c bd3d 758c d03c
00000110: 63fd ee3c 3a7f 593d 0ccc 3f3d 5881 cd3d
00000120: a7c0 a4bd 8579 81bd c10e 7dbd 3f1d 9dbd
00000130: f95c ce3c ba55 433b 20da afbd a8f4 8abd
00000140: e8e9 19bd 7127 da3d f1a6 ba3d 8ca0 1bbd
00000150: 1e6c 8fbd a56d 5c3d fedd cabd e5b7 453d
00000160: 3af4 46bd bc4d c53d 7a38 57bd a182 92bd
00000170: 20f2 293c c2ba 10bd 5511 a33d 97b1 97bd
00000180: e3a3 c3bc bc7d 953b d06d 243d 8114 663d
00000190: 78f8 413d c6fb 97bd 68ab abbb 8ead 58bd
000001a0: 978a 8ebd 822f 83bc a7ba a03d 187b 81bd
000001b0: fc9b 3c3d a504 693d 3d7a 7abd bcbf 0bbd
000001c0: c435 8e3d 1e4c 55bd 4c94 c0bd 6097 acbd
000001d0: bee1 ba3c 4f6f 683d b136 8d3d 5d9b e5bd
000001e0: b741 c53c 9d77 283d eada 143d 6664 963d
000001f0: 0a08 a4bd 4616 c23b aca2 6fbc 9c99 3c3d
00000200: 4067 acbd ac23 313d 23b8 aabd 242b 5dbc
00000210: 1288 e33d 90c5 3cbd bf4f 93bd 18a9 76bd
00000220: 37b4 ce3c a0c4 de3d d967 8e3d 433d ba3d
00000230: 8a76 b13c 82bd dc3d 6178 3dbd 68af 463d
00000240: 96b0 98bc c56b 41bd 39d3 a0bc f269 a9bd
00000250: c03a e3bc 6dca 9f3d c412 663c 8eb4 d6bd
00000260: 1fac ebbd 25e1 c13d e51c 8fbd 10b1 fcbd
00000270: 9b46 e93d 7db6 17bd ecd3 84bd bbad 6abc
00000280: 5710 94bc caa5 e1bc 40a0 ebbc b185 9f3d
00000290: e0a9 883d 105a d93d 19e5 123c a86e da3c
000002a0: 5e5f 1f39 ceaf b3bb cfa9 b33d bc34 c7bc
000002b0: 3d1a af3c b636 3fbd c57d 803c 4fea 943b
000002c0: 3b14 c0bd 77db 963c 3cbd 9fbd 6516 80bd
000002d0: e27f df3a 913a 853d 677d 23bd 8f3d 96bd
000002e0: e773 fdbd d657 663d 061f 9c3d fc55 40bb
000002f0: cdc5 1fbc 1539 a23d 16ba 4a3d 628b 80bd
00000300: ecaa 3f3c 7ad3 90bc 8a12 153c e4c5 99bd
00000310: 6695 a43d e7e2 d0bd 4497 68bc f9a5 8abc
00000320: 3b44 a1bd 98e5 fdbc 8fff 463d 480d 03bd
00000330: d498 e63d 4d73 b23d 7cb8 b2bd ace2 b9bd
00000340: c4a4 083e cb55 f63c 25d0 463d a76d bc3d
00000350: 06f5 b53c 4a08 4fbd 5347 bebc e537 6bbd
00000360: 1ff8 1bbc 6ad7 5fbd d8f1 213d cd04 193d
00000370: 75c2 a3bd 86ba cebc 3ee3 bebc 4cc4 6a3d
00000380: 1c21 b63d 8405 93bc 9502 963d 53a7 c23d
00000390: 57c7 ec3c a20a b2bb 3c4c 79bd 7f4d 23bd
000003a0: ecba e6ba b05c bf3d eb8a b43b a92b b13d
000003b0: bd08 a63c ddfe cc3c a9fa 8fbd 3133 debd
000003c0: d474 f23c 3286 0abd 6593 14be f1b6 d2bd
000003d0: 606a 083d 406f 42bd 6723 6fbd f6dc 08be
000003e0: d4ec af3c 1690 0f3d 9493 4dbc f7d0 a33d
000003f0: 1fad 89bd 5632 e2bd e4f7 2fbd 4514 a93d
-0.081730105 0.064056545 -0.08016731 -0.007824705 -0.005933251 0.07416618 0.04394969 -0.070251405
0.098051116 0.023911301 0.09293939 0.07616157 -0.08662779 0.059404217 -0.003015053 -0.07932804
0.09430818 0.022262633 0.016410194 0.027582848 0.07974597 -0.028085131 0.09359726 -0.04786033
-0.07440782 -0.07025411 0.0718615 -0.13341582 0.082607694 0.012537786 0.052610684 -0.064949244
0.07336992 -0.10747773 0.11094271 0.050420076 0.06824484 0.0967472 0.058661874 0.04907277
0.06298904 0.10405253 0.08309508 0.07614044 0.029628621 0.037383024 0.040687934 -0.12791222
-0.075557 -0.05817572 0.030513935 0.046379033 -0.046870653 0.039192535 -0.059312165 -0.028607745
-0.17128067 -0.06476237 -0.0022102052 -0.02425041 0.034479596 0.017817913 -0.04892921 0.08344182
-0.0349513 0.09417234 0.09258291 0.0254576 0.029173559 0.05309985 0.046825454 0.10034436
-0.08044558 -0.06322006 -0.06178165 -0.07671594 0.025190817 0.0029805736 -0.08586526 -0.06784946
-0.037576586 0.10652054 0.09113873 -0.037994906 -0.070030436 0.053815503 -0.09905623 0.04827108
-0.048572756 0.09633967 -0.052544095 -0.07153822 0.0103726685 -0.035334356 0.0796229 -0.074069194
-0.023881858 0.004562108 0.040143788 0.056171898 0.0473561 -0.07421069 -0.005238939 -0.05289989
-0.06960028 -0.016013864 0.07848101 -0.063223064 0.046047196 0.056889195 -0.06115173 -0.0341184
0.06943849 -0.052074544 -0.094032854 -0.0842731 0.02281272 0.056746777 0.06895197 -0.11211274
0.024079187 0.041129697 0.036341585 0.07343368 -0.08009346 0.0059230654 -0.014626186 0.04604493
-0.08418131 0.04324691 -0.083359025 -0.013499055 0.11109938 -0.046086848 -0.07192945 -0.060219854
0.025232418 0.10877347 0.06953401 0.09093716 0.02166297 0.10778333 -0.04625738 0.048507124
-0.01863889 -0.047221918 -0.019631969 -0.082721606 -0.027737975 0.078022815 0.01404256 -0.10483657
-0.11507439 0.09466771 -0.06987933 -0.123384595 0.1139042 -0.03703927 -0.064857334 -0.014323647
-0.018074198 -0.027544875 -0.028762937 0.077891715 0.06673026 0.10612881 0.008965754 0.026664093
0.00015198949 -0.005483604 0.08772623 -0.024317138 0.021374816 -0.046683036 0.015684972 0.0045445333
-0.09378859 0.018415196 -0.077997655 -0.062542714 0.0017051662 0.06505311 -0.039914515 -0.0733596
-0.12375622 0.05623611 0.07623105 -0.0029348126 -0.009751749 0.07921044 0.04949387 -0.06276585
0.011698466 -0.017678965 0.009098658 -0.07508448 0.08036308 -0.10199528 -0.014196221 -0.016924845
-0.07874342 -0.030993268 0.048583563 -0.031995088 0.112596184 0.08713398 -0.08726594 -0.09076437
0.13344103 0.030070206 0.048538346 0.09200602 0.022211563 -0.050545014 -0.02322737 -0.057426352
-0.009519606 -0.054648794 0.03953728 0.037358094 -0.07996074 -0.025235426 -0.023301717 0.05731611
0.08893034 -0.017946966 0.07324711 0.09504571 0.028903646 -0.0054333964 -0.06086372 -0.039868828
-0.0017603314 0.093438506 0.0055097244 0.08650906 0.020267839 0.025023872 -0.070302315 -0.10849608
0.029596724 -0.033819385 -0.14509352 -0.102887996 0.033304572 -0.047469378 -0.05838337 -0.1336554
0.021475233 0.03504952 -0.012547392 0.07998841 -0.06722473 -0.11044757 -0.042961016 0.08255819

fc3.bias f4 [2]
00000000: b1d3 043d 9057 e1bc
0.032428447 -0.027507573
